boston_weights.npy (npy, 848 bytes, 1 tensors)

array i1 [3, 16, 16]
00000000: c501 bff6 f205 f6f9 0000 0000 0000 0000
00000010: ea05 02f5 f01f 00e7 0000 0000 0000 0000
00000020: e820 f621 ffe6 12fa 0000 0000 0000 0000
00000030: 8106 f513 b222 e300 0000 0000 0000 0000
00000040: 1af5 04e9 fcd1 00ea 0000 0000 0000 0000
00000050: 1a16 22e9 f604 09e8 0000 0000 0000 0000
00000060: e507 f119 1a07 faf2 0000 0000 0000 0000
00000070: eef1 f5fe 1e00 06d8 0000 0000 0000 0000
00000080: ea1e f005 061b 1518 0000 0000 0000 0000
00000090: 0002 00ee eeef 020a 0000 0000 0000 0000
000000a0: 0e00 dfe2 090e f710 0000 0000 0000 0000
000000b0: 1c09 00fd fa0b 02fd 0000 0000 0000 0000
000000c0: 02e3 17de 0af4 e1f4 0000 0000 0000 0000
000000d0: 0000 0000 0000 0000 0000 0000 0000 0000
000000e0: 0000 0000 0000 0000 0000 0000 0000 0000
000000f0: 0000 0000 0000 0000 0000 0000 0000 0000
-59 1 -65 -10 -14 5 -10 -7
0 0 0 0 0 0 0 0
-22 5 2 -11 -16 31 0 -25
0 0 0 0 0 0 0 0
-24 32 -10 33 -1 -26 18 -6
0 0 0 0 0 0 0 0
-127 6 -11 19 -78 34 -29 0
0 0 0 0 0 0 0 0
26 -11 4 -23 -4 -47 0 -22
0 0 0 0 0 0 0 0
26 22 34 -23 -10 4 9 -24
0 0 0 0 0 0 0 0
-27 7 -15 25 26 7 -6 -14
0 0 0 0 0 0 0 0
-18 -15 -11 -2 30 0 6 -40
0 0 0 0 0 0 0 0
-22 30 -16 5 6 27 21 24
0 0 0 0 0 0 0 0
0 2 0 -18 -18 -17 2 10
0 0 0 0 0 0 0 0
14 0 -33 -30 9 14 -9 16
0 0 0 0 0 0 0 0
28 9 0 -3 -6 11 2 -3
0 0 0 0 0 0 0 0
2 -29 23 -34 10 -12 -31 -12
0 0 0 0 0 0 0 0
0 0 0 0 0 0 0 0
0 0 0 0 0 0 0 0
0 0 0 0 0 0 0 0
0 0 0 0 0 0 0 0
0 0 0 0 0 0 0 0
0 0 0 0 0 0 0 0
